OptionalHomework/weights.pth (torch, 4765 bytes, 3 tensors)

net.0.weight f4 [16, 3, 3, 3]
000000 75 ed 52 bc a1 b1 fb bd c3 36 ef 3d e5 4a 2e bd
       -0.012873997 -0.122897394 0.11680367 -0.042551894
000010 be 23 12 bd 22 f5 25 be 19 1b ef bd 08 93 26 bc
       -0.035678618 -0.16206792 -0.1167509 -0.010166891
000020 0d 27 24 be 0f 31 52 bd f4 c8 ce 3d f1 33 1f 3c
       -0.16030522 -0.051316317 0.100969225 0.009716974
000030 c9 8c c0 3d 73 21 33 3e 47 56 c5 bd 4f be 01 3e
       0.09401853 0.17493229 -0.09635597 0.12670253
000040 ad 69 14 be e5 7b fa 3d 61 ff 6c bc 39 c4 26 3d
       -0.14493437 0.12230662 -0.014465184 0.040714476
000050 41 dc 40 3e d4 97 05 be fa 22 dd bd 3e 8a 40 be
       0.1883402 -0.13046199 -0.10797687 -0.18802735
000060 2d be 03 bd 02 0a d8 bd e7 a8 17 3e 6f 4b 3a be
       -0.032163788 -0.10548784 0.14810525 -0.18192838
000070 72 74 56 3d 01 7c 13 be c0 d1 b9 3d 0f f5 aa bd
       0.052357145 -0.14402772 0.0907321 -0.083475225
000080 1f 32 0c bd bd 25 f1 bd 6d 49 15 be c4 40 c8 bd
       -0.034227487 -0.11774776 -0.14578791 -0.09777978
000090 60 b5 d3 bd bc 08 23 be 39 22 05 be 11 e8 41 be
       -0.10337329 -0.159213 -0.13001336 -0.18936183
0000a0 5e 8c c7 3d c3 e8 7f be bf ad d2 3c 9f f8 f2 3c
       0.0974357 -0.24991135 0.025717614 0.029659567
0000b0 38 92 8f bd 3b 16 df 3d 2a 07 dd 3d 5f 0b 07 3e
       -0.07010311 0.10892912 0.10792382 0.13187931
0000c0 a1 8a 6c 3d 46 d5 5a 3e 82 2f 96 3d 9e d9 ce 3d
       0.057749394 0.2137042 0.0733328 0.10100101
0000d0 79 f9 37 3d 65 7e 78 3e 0f 80 1c be 9e 60 df bd
       0.04491565 0.24266966 -0.15283225 -0.109071
0000e0 9b 9c 37 3d 80 1b 42 3e d7 3c 44 3d 52 9e 13 be
       0.044827085 0.18955803 0.047909584 -0.14415863
0000f0 3f ad 8d 3d 18 cb cb bd 1a 1b a3 be 86 4d fd bd
       0.0691781 -0.099508464 -0.31856614 -0.12368302
000100 67 a7 04 3e 37 4d 4b 3e b2 db 90 3d b9 05 f3 3d
       0.12954484 0.19853674 0.070731536 0.11866326
000110 e3 15 99 bd 12 94 43 3e 86 43 d9 3c 26 99 49 be
       -0.07474878 0.19099453 0.026521455 -0.19687328
000120 a6 49 f6 bc 5a 6f 74 be 1c 2b f7 bd 56 55 36 be
       -0.030064415 -0.23870602 -0.12068769 -0.1780599
000130 02 50 c4 3d dd 15 26 3c b5 1f 0c bd da b9 8c 3e
       0.09585573 0.010137049 -0.034209926 0.27485543
000140 78 75 5c bd 07 73 21 3e 10 01 0b 3e e1 13 9d bc
       -0.053822964 0.15766536 0.13574624 -0.019174518
000150 3f 29 17 bc 0b db e4 bc f8 77 49 be 86 ce ae 3d
       -0.009226142 -0.02793648 -0.1967467 0.08535485
000160 02 4c e4 bd af 00 a5 bc 94 dc 5e 3c 55 f5 6a be
       -0.1114731 -0.020141928 0.013602395 -0.22945149
000170 8b 49 6c be 82 c6 86 ba 7c 51 c1 3d 84 2c b5 3d
       -0.2307493 -0.0010282549 0.0943937 0.08846381
000180 e3 d7 3e 3e fc f2 9b 3d db ef eb 3d ba cd 1d 3e
       0.18637042 0.07614705 0.11520358 0.1541051
000190 39 cd 9c 3c 3b cd 3c be db 6e 5a 3d 8e 82 f1 bd
       0.019140827 -0.18437664 0.053328376 -0.117924795
0001a0 cd dd 47 3d 0a 20 63 bd cc b9 8d 3d 94 42 b3 bd
       0.04879551 -0.055450477 0.069202036 -0.08752933
0001b0 df 7e 30 bd 9b df ae 3d f5 ac 31 bd a0 62 2a 3d
       -0.043089744 0.08538743 -0.043377835 0.041597962
0001c0 5f a1 03 be 7a 5f df 3c 17 c6 f5 bd 8f ba a6 3d
       -0.12854527 0.027267206 -0.12000673 0.08141052
0001d0 f5 e7 47 3e 58 c6 25 3e 86 ef 34 bd 92 85 c3 3d
       0.19522078 0.16188943 -0.04417374 0.09546961
0001e0 8c f5 08 be 3f 4a 65 3d 32 d7 24 bc e7 08 b7 bc
       -0.13374919 0.05597901 -0.010061072 -0.022343112
0001f0 bc 73 2d 3e 14 7d d0 3d e1 38 b0 bd 25 71 13 3d
       0.1693868 0.10180107 -0.08604599 0.035996575
000200 e6 70 ab 3d 52 bd 49 3e be 3a bf bd 19 a0 9f 3d
       0.08371143 0.19701126 -0.09337376 0.07794208
000210 a0 a0 3b 3e 8d c0 27 3e 19 25 41 3e 23 6d 2f bd
       0.18322992 0.16382046 0.18861808 -0.04282869
000220 f1 78 90 3d 9c d9 0c bc bd bb f0 bc 4f ec 1f be
       0.07054318 -0.008596804 -0.029386396 -0.15617488
000230 c9 7c e3 3b 30 a4 eb 3d 78 be d7 bc dc f9 1a 3c
       0.006942366 0.11505926 -0.02633594 0.009458985
000240 01 7d ad bd fd 82 3d 3d 3e 37 4f bd b1 16 c6 bd
       -0.08471108 0.0462675 -0.050589792 -0.09672297
000250 18 ab a0 3d 2c f8 28 be fd 5c b6 3d c0 67 63 be
       0.078451335 -0.1650092 0.08904455 -0.22207546
000260 00 95 8f 3d 00 48 53 3d b6 31 95 3d d2 e8 b2 3d
       0.07010841 0.051582336 0.07284872 0.08735813
000270 fe b6 04 3d bc 0d d9 bd 17 e9 d7 bd 93 c3 a1 3d
       0.032401077 -0.10598323 -0.10542505 0.07898631
000280 24 f7 65 be c8 d5 36 be c3 43 a9 bd 98 54 eb 3d
       -0.22457558 -0.17854989 -0.08264878 0.11490744
000290 55 41 98 bd 6f 5f 62 bc 97 36 a9 3d 5f f4 89 3d
       -0.07434336 -0.013816698 0.08262365 0.06736063
0002a0 71 0b 1e bd 77 25 8e bc cc ad c4 bd 12 16 ad 3d
       -0.03858513 -0.017351849 -0.096034616 0.08451475
0002b0 1f 8f 13 bc 7c 72 11 3d cc 8f 30 3e 39 8a fc bd
       -0.009006291 0.03550957 0.17242354 -0.123310514
0002c0 0e 46 2e b9 ea 64 c4 3d 87 eb e4 bd 67 74 b2 bc
       -0.0001662003 0.0958956 -0.11177736 -0.02178402
0002d0 bd 95 44 3c bf 20 c3 39 9a 2f 0b be 26 5b 14 be
       0.011998591 0.00037217696 -0.13592377 -0.14487895
0002e0 40 d5 6a 3d fe c3 eb bd 0e f6 11 be 89 c2 8c bd
       0.057332277 -0.11511992 -0.14254019 -0.06873042
0002f0 a9 3a a3 bd 4f 32 12 3e 94 7f 83 bd cb 0d aa bd
       -0.07970173 0.14277004 -0.06420818 -0.08303412
000300 40 fb ca bd 5b 78 fe bd e7 eb 13 3e a0 fa 2c 3e
       -0.099112034 -0.124253 0.14445458 0.16892481
000310 78 e6 05 3d c1 cf 2b bc 5a ae 13 3e ee 08 80 bd
       0.032690495 -0.010486544 0.14421979 -0.06251703
000320 1a 5d 93 3c 2d 16 dd bd d3 c4 00 be ba 00 05 be
       0.01798873 -0.10795245 -0.12575082 -0.12988558
000330 b0 13 2e 3d 79 b7 60 3e 79 0e 0a 3e ee b4 58 3e
       0.042499244 0.2194499 0.13482083 0.21162769
000340 5b b5 42 3d 4e 4e 85 be 69 07 39 3e 9e f3 87 bd
       0.047536235 -0.26036304 0.18069233 -0.06638263
000350 b8 5a a5 bd a7 ab 89 3d 94 11 e4 bd 69 51 14 3e
       -0.08073944 0.06722193 -0.11136165 0.1448418
000360 15 74 2b be e6 d2 dd 3d f1 f1 99 3d 66 e1 eb bd
       -0.167435 0.10831241 0.0751685 -0.11517601
000370 37 b3 54 3e a3 29 a3 3d cc 72 15 be 3c 64 1d 3d
       0.2077149 0.07966926 -0.14594573 0.03842567
000380 79 6c db bd bb dd 3f be 27 ee 9b 3d 6e 14 02 3e
       -0.10714049 -0.18736927 0.07613783 0.12703106
000390 d1 61 1f be 18 75 1e 3e 5b 05 60 3d 5e 82 8d 3c
       -0.15564658 0.15474355 0.054692607 0.017274078
0003a0 3a 0e 2f be af d8 f2 3d bf 01 6c bd 4a b9 f4 3c
       -0.17095271 0.11857735 -0.057618853 0.029873509
0003b0 60 00 b5 bb de bc 81 bd 48 ad 3e 3d 07 7e a8 bd
       -0.0055237263 -0.06334852 0.046551973 -0.08227163
0003c0 91 8d ea 3d 29 cf 50 bd 16 64 b3 3d 50 10 08 bd
       0.11452783 -0.050978813 0.08759324 -0.03321868
0003d0 65 97 45 be f3 b1 1b 3e 5e ce 2f 3e e3 aa 01 3e
       -0.19296034 0.15204601 0.17168567 0.12662844
0003e0 9c 63 59 bd e5 6c 30 be e4 b8 17 be 1c 71 13 be
       -0.05307351 -0.1722904 -0.14816624 -0.14398617
0003f0 26 ac a2 bb 8a d0 cf bc a1 22 ca 3a 1f 7c 18 3c
       -0.0049643693 -0.025367994 0.0015421697 0.0093069365

net.0.bias f4 [16]
000000 db f4 d9 3d 88 b4 31 3e 40 a8 06 3e 2d 7a 80 3d
       0.106424056 0.17354023 0.1315012 0.06273303
000010 c5 c5 28 3c 3b c7 71 be b2 d8 cb 3e 04 1b d1 be
       0.010301058 -0.23611157 0.39813763 -0.40840924
000020 65 37 1c bd 8f ab 93 3d b3 0b 4b 3e 46 f0 c4 bc
       -0.038138766 0.072104566 0.19828682 -0.024040353
000030 13 42 71 3c e6 3c 63 3c b8 85 03 be 7d f0 9a b9
       0.014725226 0.0138695 -0.12843978 -0.00029552347

net.2.weight f4 [1, 16, 3, 3]
000000 08 fe cd 3c f5 93 2a 3d 66 0d bf 3d 24 55 99 bd
       0.025145546 0.04164501 0.093287274 -0.074869424
000010 4b c3 0b bd 92 9e 05 3d 60 7b d6 bd 5c cd 0a bd
       -0.034121793 0.032621928 -0.10472751 -0.033887252
000020 61 50 d9 3a 39 66 0c 3d ed a0 25 3d 2e 91 43 3d
       0.0016579741 0.034277175 0.040436674 0.047745876
000030 df 32 72 3d ee a0 27 3d 3e 4a 17 3d 06 36 1d 3c
       0.059130546 0.04092496 0.036936037 0.0095954
000040 87 a4 02 3c 0a 4d a8 3d f7 f6 a6 bd 18 e3 25 bd
       0.007973797 0.08217819 -0.081525736 -0.040499777
000050 e9 15 9b bd 7f ff 10 3c e2 18 81 3c 94 1b 0b bc
       -0.075725384 0.0088499775 0.015758935 -0.008490462
000060 37 ef c1 bd 0e 7f 18 bd b7 72 7e bd 95 84 91 3d
       -0.09469455 -0.037230544 -0.06212112 0.07105366
000070 e1 d0 01 bd d2 6e 86 bd 81 9a 18 bd ec c9 bb 3c
       -0.031693343 -0.06564106 -0.03725672 0.022923432
000080 68 13 14 bd 4b c0 96 3d 14 09 98 3c 78 05 44 bb
       -0.03615132 0.07360896 0.018559016 -0.0029910486
000090 30 e0 5b 3d d9 82 9d 3c 32 c5 a4 bb b6 70 04 3d
       0.0536806 0.019227432 -0.0050283903 0.032334052
0000a0 3f 19 c2 3c 53 22 7d 3c 40 04 8b 3c 9f 70 8a 3d
       0.023693679 0.015450078 0.0169698 0.06759762
0000b0 f8 1f 16 3e 42 93 89 3d ee ac 09 3d 5d 83 fd bb
       0.14660633 0.0671754 0.033612184 -0.007736607
0000c0 c4 9f 00 3c d9 96 7f bd 50 6f 62 3c dc 62 dc bc
       0.007850591 -0.06239972 0.013820484 -0.026902609
0000d0 48 3a 6d bc 3c 2c 97 bc 4c 4d 94 bd 65 c1 37 3a
       -0.014479227 -0.01845371 -0.07241306 0.0007009714
0000e0 92 23 d5 bc 78 9b 2e bc 40 52 07 bd 7a b3 12 3d
       -0.026017938 -0.010657184 -0.033037424 0.035815693
0000f0 75 9f ee 3d 8d a2 10 3e 51 00 38 3e 95 c9 18 3e
       0.11651508 0.14124508 0.1796887 0.14920647
000100 24 19 c4 3d c2 96 06 3e 46 df 0e 3e 5d 54 19 3d
       0.09575108 0.13143447 0.1395236 0.03743397
000110 52 1d 9e 3d f6 dd 89 3e a1 60 14 3e e1 34 19 3e
       0.07720436 0.26927155 0.14489986 0.14961578
000120 49 29 6a bc d5 a9 99 3a a8 34 34 3d 5c fb 9f bc
       -0.01429207 0.0011723588 0.04399553 -0.019529037
000130 89 8a b1 3b fe 39 59 3c 7e 67 96 bd 87 c4 59 bd
       0.005418126 0.013258455 -0.07343958 -0.05316594
000140 b4 c4 b6 3a af 74 be 3d 62 29 fe 3c 3d 11 32 3d
       0.001394412 0.092995994 0.031025592 0.04347347
000150 67 54 98 3d 50 7b 1e 3d 86 db 2d 3d 3b 5d 7e bb
       0.074379735 0.03869182 0.042445682 -0.0038812894
000160 76 28 1d bc ff 1e 7d 3d 2d 9b b7 be 92 3c 0b bd
       -0.009592166 0.06179714 -0.35860577 -0.03399331
000170 b0 83 92 be 2b 97 32 3d f6 32 6b 3e 01 57 26 3d
       -0.28616095 0.043601196 0.22968659 0.040610317
000180 26 96 a1 be cc cf 2b bd ac 60 7b be e8 15 0a be
       -0.31559867 -0.041946217 -0.24548596 -0.13484919
000190 96 70 af bc b2 8e 18 be 3d 3f 24 ba ef 80 b6 3d
       -0.02141599 -0.14898184 -0.0006265527 0.08911311
0001a0 30 94 90 3b d9 43 80 bd b6 4d bc bc a9 c4 c0 bd
       0.0044121966 -0.06262941 -0.022986274 -0.0941251
0001b0 68 4e eb 3d ea 6c 2e 3d 2a eb 13 3d 49 37 c6 3c
       0.11489564 0.042584337 0.03611294 0.024196284
0001c0 e3 c3 57 bc 87 60 47 bd 49 b5 f3 bc 9b 8c c1 3a
       -0.013169262 -0.04867604 -0.02974953 0.0014766635
0001d0 27 49 00 be 15 87 02 bb 4c 88 d8 bd 64 31 44 bc
       -0.12527905 -0.001991694 -0.105728716 -0.011974666
0001e0 c3 5c f3 3c 2a 5a a4 bd 1a 31 46 bc 81 19 2e 3e
       0.029707318 -0.0802501 -0.012096668 0.17001916
0001f0 1a 9d 3b 3c 5a 7b da 3b fc cb fe bc ea 4e 23 3d
       0.01145103 0.0066675367 -0.031103127 0.03987018
000200 f8 54 86 bd 33 9f 0e bd 21 8f a3 3d 19 f9 a0 3d
       -0.06559175 -0.034819793 0.07986284 0.078600116
000210 16 5b d8 bc 59 b2 3e 3c 04 7e 0e 39 cb aa 1e 3d
       -0.02641062 0.011639201 0.0001358912 0.0387371
000220 39 51 92 bc 53 a7 06 3e 60 75 48 bd 96 ab 0f be
       -0.017860996 0.13149767 -0.048940063 -0.14030299
000230 56 64 e5 3b 55 b0 d8 3c 01 22 cb bd 07 8e e7 3d
       0.0070004864 0.02645127 -0.09918595 0.113063864
